…
4   <class '__main__.SampleWeightNN'>[initialized]...  0.763889   0.000000
..                                                ...       ...        ...
66  <class '__main__.SampleWeightNN'>[initialized]...  0.763889   0.000000
67  <class '__main__.SampleWeightNN'>[initialized]...  0.763889   0.000000
68  <class '__main__.SampleWeightNN'>[initialized]...  0.763889   0.000000
69  <class '__main__.SampleWeightNN'>[initialized]...  0.763889   0.077485
70  <class '__main__.SampleWeightNN'>[initialized]...  0.763889   0.077485

[71 rows x 3 columns]
#################################################
[<class '__main__.SampleWeightNN'>[initialized](
  module_=MLP(
    (hidden1): Linear(in_features=239, out_features=12, bias=True)
    (act1): Sigmoid()
    (hidden2): Linear(in_features=12, out_features=8, bias=True)
    (act2): Sigmoid()
    (hidden3): Linear(in_features=8, out_features=1, bias=True)
  ),
), <class '__main__.SampleWeightNN'>[initialized](
  module_=MLP(
    (hidden1): Linear(in_features=239, out_features=12, bias=True)
    (act1): Sigmoid()
    (hidden2): Linear(in_features=12, out_features=8, bias=True)
    (act2): Sigmoid()
    (hidden3): Linear(in_features=8, out_features=1, bias=True)
  ),
), <class '__main__.SampleWeightNN'>[initialized](
  module_=MLP(
    (hidden1): Linear(in_features=239, out_features=12, bias=True)
    (act1): Sigmoid()
    (hidden2): Linear(in_features=12, out_features=8, bias=True)
    (act2): Sigmoid()
    (hidden3): Linear(in_features=8, out_features=1, bias=True)
  ),
), <class '__main__.SampleWeightNN'>[initialized](
  module_=MLP(
    (hidden1): Linear(in_features=239, out_features=12, bias=True)
    (act1): Sigmoid()
    (hidden2): Linear(in_features=12, out_features=8, bias=True)
    (act2): Sigmoid()
    (hidden3): Linear(in_features=8, out_features=1, bias=True)
  ),
), <class '__main__.SampleWeightNN'>[initialized](
  module_=MLP(
    (hidden1): Linear(in_features=239, out_features=12, bias=True)
    (act1): Sigmoid()
    (hidden2): Linear(in_features=12, out_features=8, bias=True)
    (act2): Sigmoid()
    (hidden3): Linear(in_features=8, out_features=1, bias=True)
  ),
), <class '__main__.SampleWeightNN'>[initialized](
  module_=MLP(
    (hidden1): Linear(in_features=239, out_features=12, bias=True)
    (act1): Sigmoid()
    (hidden2): Linear(in_features=12, out_features=8, bias=True)
    (act2): Sigmoid()
    (hidden3): Linear(in_features=8, out_features=1, bias=True)
  ),
), <class '__main__.SampleWeightNN'>[initialized](
  module_=MLP(
    (hidden1): Linear(in_features=239, out_features=12, bias=True)
    (act1): Sigmoid()
    (hidden2): Linear(in_features=12, out_features=8, bias=True)
    (act2): Sigmoid()
    (hidden3): Linear(in_features=8, out_features=1, bias=True)
  ),
), <class '__main__.SampleWeightNN'>[initialized](
  module_=MLP(
    (hidden1): Linear(in_features=239, out_features=12, bias=True)
    (act1): Sigmoid()
    (hidden2): Linear(in_features=12, out_features=8, bias=True)
    (act2): Sigmoid()
    (hidden3): Linear(in_features=8, out_features=1, bias=True)
  ),
), <class '__main__.SampleWeightNN'>[initialized](
  module_=MLP(
    (hidden1): Linear(in_features=239, out_features=12, bias=True)
    (act1): Sigmoid()
    (hidden2): Linear(in_features=12, out_features=8, bias=True)
    (act2): Sigmoid()
    (hidden3): Linear(in_features=8, out_features=1, bias=True)
  ),
), <class '__main__.SampleWeightNN'>[initialized](
  module_=MLP(
    (hidden1): Linear(in_features=239, out_features=12, bias=True)
    (act1): Sigmoid()
    (hidden2): Linear(in_features=12, out_features=8, bias=True)
    (act2): Sigmoid()
    (hidden3): Linear(in_features=8, out_features=1, bias=True)
  ),
), <class '__main__.SampleWeightNN'>[initialized](
  module_=MLP(
    (hidden1): Linear(in_features=239, out_features=12, bias=True)
    (act1): Sigmoid()
    (hidden2): Linear(in_features=12, out_features=8, bias=True)
    (act2): Sigmoid()
    (hidden3): Linear(in_features=8, out_features=1, bias=True)
  ),
), <class '__main__.SampleWeightNN'>[initialized](
  module_=MLP(
    (hidden1): Linear(in_features=239, out_features=12, bias=True)
    (act1): Sigmoid()
    (hidden2): Linear(in_features=12, out_features=8, bias=True)
    (act2): Sigmoid()
    (hidden3): Linear(in_features=8, out_features=1, bias=True)
  ),
), <class '__main__.SampleWeightNN'>[initialized](
  module_=MLP(
    (hidden1): Linear(in_features=239, out_features=12, bias=True)
    (act1): Sigmoid()
    (hidden2): Linear(in_features=12, out_features=8, bias=True)
    (act2): Sigmoid()
    (hidden3): Linear(in_features=8, out_features=1, bias=True)
  ),
), <class '__main__.SampleWeightNN'>[initialized](
  module_=MLP(
    (hidden1): Linear(in_features=239, out_features=12, bias=True)
    (act1): Sigmoid()
    (hidden2): Linear(in_features=12, out_features=8, bias=True)
    (act2): Sigmoid()
    (hidden3): Linear(in_features=8, out_features=1, bias=True)
  ),
), <class '__main__.SampleWeightNN'>[initialized](
  module_=MLP(
    (hidden1): Linear(in_features=239, out_features=12, bias=True)
    (act1): Sigmoid()
    (hidden2): Linear(in_features=12, out_features=8, bias=True)
    (act2): Sigmoid()
    (hidden3): Linear(in_features=8, out_features=1, bias=True)
  ),
), <class '__main__.SampleWeightNN'>[initialized](
  module_=MLP(
    (hidden1): Linear(in_features=239, out_features=12, bias=True)
    (act1): Sigmoid()
    (hidden2): Linear(in_features=12, out_features=8, bias=True)
    (act2): Sigmoid()
    (hidden3): Linear(in_features=8, out_features=1, bias=True)
  ),
), <class '__main__.SampleWeightNN'>[initialized](
  module_=MLP(
    (hidden1): Linear(in_features=239, out_features=12, bias=True)
    (act1): Sigmoid()
    (hidden2): Linear(in_features=12, out_features=8, bias=True)
    (act2): Sigmoid()
    (hidden3): Linear(in_features=8, out_features=1, bias=True)
  ),
), <class '__main__.SampleWeightNN'>[initialized](
  module_=MLP(
    (hidden1): Linear(in_features=239, out_features=12, bias=True)
    (act1): Sigmoid()
    (hidden2): Linear(in_features=12, out_features=8, bias=True)
    (act2): Sigmoid()
    (hidden3): Linear(in_features=8, out_features=1, bias=True)
  ),
), <class '__main__.SampleWeightNN'>[initialized](
  module_=MLP(
    (hidden1): Linear(in_features=239, out_features=12, bias=True)
    (act1): Sigmoid()
    (hidden2): Linear(in_features=12, out_features=8, bias=True)
    (act2): Sigmoid()
    (hidden3): Linear(in_features=8, out_features=1, bias=True)
  ),
), <class '__main__.SampleWeightNN'>[initialized](
  module_=MLP(
    (hidden1): Linear(in_features=239, out_features=12, bias=True)
    (act1): Sigmoid()
    (hidden2): Linear(in_features=12, out_features=8, bias=True)
    (act2): Sigmoid()
    (hidden3): Linear(in_features=8, out_features=1, bias=True)
  ),
), <class '__main__.SampleWeightNN'>[initialized](
  module_=MLP(
    (hidden1): Linear(in_features=239, out_features=12, bias=True)
    (act1): Sigmoid()
    (hidden2): Linear(in_features=12, out_features=8, bias=True)
    (act2): Sigmoid()
    (hidden3): Linear(in_features=8, out_features=1, bias=True)
  ),
), <class '__main__.SampleWeightNN'>[initialized](
  module_=MLP(
    (hidden1): Linear(in_features=239, out_features=12, bias=True)
    (act1): Sigmoid()
    (hidden2): Linear(in_features=12, out_features=8, bias=True)
    (act2): Sigmoid()
    (hidden3): Linear(in_features=8, out_features=1, bias=True)
  ),
), <class '__main__.SampleWeightNN'>[initialized](
  module_=MLP(
    (hidden1): Linear(in_features=239, out_features=12, bias=True)
    (act1): Sigmoid()
    (hidden2): Linear(in_features=12, out_features=8, bias=True)
    (act2): Sigmoid()
    (hidden3): Linear(in_features=8, out_features=1, bias=True)
  ),
), <class '__main__.SampleWeightNN'>[initialized](
  module_=MLP(
    (hidden1): Linear(in_features=239, out_features=12, bias=True)
    (act1): Sigmoid()
    (hidden2): Linear(in_features=12, out_features=8, bias=True)
    (act2): Sigmoid()
    (hidden3): Linear(in_features=8, out_features=1, bias=True)
  ),
), <class '__main__.SampleWeightNN'>[initialized](
  module_=MLP(
    (hidden1): Linear(in_features=239, out_features=12, bias=True)
    (act1): Sigmoid()
    (hidden2): Linear(in_features=12, out_features=8, bias=True)
    (act2): Sigmoid()
    (hidden3): Linear(in_features=8, out_features=1, bias=True)
  ),
), <class '__main__.SampleWeightNN'>[initialized](
  module_=MLP(
    (hidden1): Linear(in_features=239, out_features=12, bias=True)
    (act1): Sigmoid()
    (hidden2): Linear(in_features=12, out_features=8, bias=True)
    (act2): Sigmoid()
    (hidden3): Linear(in_features=8, out_features=1, bias=True)
  ),
), <class '__main__.SampleWeightNN'>[initialized](
  module_=MLP(
    (hidden1): Linear(in_features=239, out_features=12, bias=True)
    (act1): Sigmoid()
    (hidden2): Linear(in_features=12, out_features=8, bias=True)
    (act2): Sigmoid()
    (hidden3): Linear(in_features=8, out_features=1, bias=True)
  ),
), <class '__main__.SampleWeightNN'>[initialized](
  module_=MLP(
    (hidden1): Linear(in_features=239, out_features=12, bias=True)
    (act1): Sigmoid()
    (hidden2): Linear(in_features=12, out_features=8, bias=True)
    (act2): Sigmoid()
    (hidden3): Linear(in_features=8, out_features=1, bias=True)
  ),
), <class '__main__.SampleWeightNN'>[initialized](
  module_=MLP(
    (hidden1): Linear(in_features=239, out_features=12, bias=True)
    (act1): Sigmoid()
    (hidden2): Linear(in_features=12, out_features=8, bias=True)
    (act2): Sigmoid()
    (hidden3): Linear(in_features=8, out_features=1, bias=True)
  ),
), <class '__main__.SampleWeightNN'>[initialized](
  module_=MLP(
    (hidden1): Linear(in_features=239, out_features=12, bias=True)
    (act1): Sigmoid()
    (hidden2): Linear(in_features=12, out_features=8, bias=True)
    (act2): Sigmoid()
    (hidden3): Linear(in_features=8, out_features=1, bias=True)
  ),
), <class '__main__.SampleWeightNN'>[initialized](
  module_=MLP(
    (hidden1): Linear(in_features=239, out_features=12, bias=True)
    (act1): Sigmoid()
    (hidden2): Linear(in_features=12, out_features=8, bias=True)
    (act2): Sigmoid()
    (hidden3): Linear(in_features=8, out_features=1, bias=True)
  ),
), <class '__main__.SampleWeightNN'>[initialized](
  module_=MLP(
    (hidden1): Linear(in_features=239, out_features=12, bias=True)
    (act1): Sigmoid()
    (hidden2): Linear(in_features=12, out_features=8, bias=True)
    (act2): Sigmoid()
    (hidden3): Linear(in_features=8, out_features=1, bias=True)
  ),
), <class '__main__.SampleWeightNN'>[initialized](
  module_=MLP(
    (hidden1): Linear(in_features=239, out_features=12, bias=True)
    (act1): Sigmoid()
    (hidden2): Linear(in_features=12, out_features=8, bias=True)
    (act2): Sigmoid()
    (hidden3): Linear(in_features=8, out_features=1, bias=True)
  ),
), <class '__main__.SampleWeightNN'>[initialized](
  module_=MLP(
    (hidden1): Linear(in_features=239, out_features=12, bias=True)
    (act1): Sigmoid()
    (hidden2): Linear(in_features=12, out_features=8, bias=True)
    (act2): Sigmoid()
    (hidden3): Linear(in_features=8, out_features=1, bias=True)
  ),
), <class '__main__.SampleWeightNN'>[initialized](
  module_=MLP(
    (hidden1): Linear(in_features=239, out_features=12, bias=True)
    (act1): Sigmoid()
    (hidden2): Linear(in_features=12, out_features=8, bias=True)
    (act2): Sigmoid()
    (hidden3): Linear(in_features=8, out_features=1, bias=True)
  ),
), <class '__main__.SampleWeightNN'>[initialized](
  module_=MLP(
    (hidden1): Linear(in_features=239, out_features=12, bias=True)
    (act1): Sigmoid()
    (hidden2): Linear(in_features=12, out_features=8, bias=True)
    (act2): Sigmoid()
    (hidden3): Linear(in_features=8, out_features=1, bias=True)
  ),
), <class '__main__.SampleWeightNN'>[initialized](
  module_=MLP(
    (hidden1): Linear(in_features=239, out_features=12, bias=True)
    (act1): Sigmoid()
    (hidden2): Linear(in_features=12, out_features=8, bias=True)
    (act2): Sigmoid()
    (hidden3): Linear(in_features=8, out_features=1, bias=True)
  ),
), <class '__main__.SampleWeightNN'>[initialized](
  module_=MLP(
    (hidden1): Linear(in_features=239, out_features=12, bias=True)
    (act1): Sigmoid()
    (hidden2): Linear(in_features=12, out_features=8, bias=True)
    (act2): Sigmoid()
    (hidden3): Linear(in_features=8, out_features=1, bias=True)
  ),
), <class '__main__.SampleWeightNN'>[initialized](
  module_=MLP(
    (hidden1): Linear(in_features=239, out_features=12, bias=True)
    (act1): Sigmoid()
    (hidden2): Linear(in_features=12, out_features=8, bias=True)
    (act2): Sigmoid()
    (hidden3): Linear(in_features=8, out_features=1, bias=True)
  ),
), <class '__main__.SampleWeightNN'>[initialized](
  module_=MLP(
    (hidden1): Linear(in_features=239, out_features=12, bias=True)
    (act1): Sigmoid()
    (hidden2): Linear(in_features=12, out_features=8, bias=True)
    (act2): Sigmoid()
    (hidden3): Linear(in_features=8, out_features=1, bias=True)
  ),
), <class '__main__.SampleWeightNN'>[initialized](
  module_=MLP(
    (hidden1): Linear(in_features=239, out_features=12, bias=True)
    (act1): Sigmoid()
    (hidden2): Linear(in_features=12, out_features=8, bias=True)
    (act2): Sigmoid()
    (hidden3): Linear(in_features=8, out_features=1, bias=True)
  ),
), <class '__main__.SampleWeightNN'>[initialized](
  module_=MLP(
    (hidden1): Linear(in_features=239, out_features=12, bias=True)
    (act1): Sigmoid()
    (hidden2): Linear(in_features=12, out_features=8, bias=True)
    (act2): Sigmoid()
    (hidden3): Linear(in_features=8, out_features=1, bias=True)
  ),
), <class '__main__.SampleWeightNN'>[initialized](
  module_=MLP(
    (hidden1): Linear(in_features=239, out_features=12, bias=True)
    (act1): Sigmoid()
    (hidden2): Linear(in_features=12, out_features=8, bias=True)
    (act2): Sigmoid()
    (hidden3): Linear(in_features=8, out_features=1, bias=True)
  ),
), <class '__main__.SampleWeightNN'>[initialized](
  module_=MLP(
    (hidden1): Linear(in_features=239, out_features=12, bias=True)
    (act1): Sigmoid()
    (hidden2): Linear(in_features=12, out_features=8, bias=True)
    (act2): Sigmoid()
    (hidden3): Linear(in_features=8, out_features=1, bias=True)
  ),
), <class '__main__.SampleWeightNN'>[initialized](
  module_=MLP(
    (hidden1): Linear(in_features=239, out_features=12, bias=True)
    (act1): Sigmoid()
    (hidden2): Linear(in_features=12, out_features=8, bias=True)
    (act2): Sigmoid()
    (hidden3): Linear(in_features=8, out_features=1, bias=True)
  ),
), <class '__main__.SampleWeightNN'>[initialized](
  module_=MLP(
    (hidden1): Linear(in_features=239, out_features=12, bias=True)
    (act1): Sigmoid()
    (hidden2): Linear(in_features=12, out_features=8, bias=True)
    (act2): Sigmoid()
    (hidden3): Linear(in_features=8, out_features=1, bias=True)
  ),
), <class '__main__.SampleWeightNN'>[initialized](
  module_=MLP(
    (hidden1): Linear(in_features=239, out_features=12, bias=True)
    (act1): Sigmoid()
    (hidden2): Linear(in_features=12, out_features=8, bias=True)
    (act2): Sigmoid()
    (hidden3): Linear(in_features=8, out_features=1, bias=True)
  ),
), <class '__main__.SampleWeightNN'>[initialized](
  module_=MLP(
    (hidden1): Linear(in_features=239, out_features=12, bias=True)
    (act1): Sigmoid()
    (hidden2): Linear(in_features=12, out_features=8, bias=True)
    (act2): Sigmoid()
    (hidden3): Linear(in_features=8, out_features=1, bias=True)
  ),
), <class '__main__.SampleWeightNN'>[initialized](
  module_=MLP(
    (hidden1): Linear(in_features=239, out_features=12, bias=True)
    (act1): Sigmoid()
    (hidden2): Linear(in_features=12, out_features=8, bias=True)
    (act2): Sigmoid()
    (hidden3): Linear(in_features=8, out_features=1, bias=True)
  ),
), <class '__main__.SampleWeightNN'>[initialized](
  module_=MLP(
    (hidden1): Linear(in_features=239, out_features=12, bias=True)
    (act1): Sigmoid()
    (hidden2): Linear(in_features=12, out_features=8, bias=True)
    (act2): Sigmoid()
    (hidden3): Linear(in_features=8, out_features=1, bias=True)
  ),
), <class '__main__.SampleWeightNN'>[initialized](
  module_=MLP(
    (hidden1): Linear(in_features=239, out_features=12, bias=True)
    (act1): Sigmoid()
    (hidden2): Linear(in_features=12, out_features=8, bias=True)
    (act2): Sigmoid()
    (hidden3): Linear(in_features=8, out_features=1, bias=True)
  ),
), <class '__main__.SampleWeightNN'>[initialized](
  module_=MLP(
    (hidden1): Linear(in_features=239, out_features=12, bias=True)
    (act1): Sigmoid()
    (hidden2): Linear(in_features=12, out_features=8, bias=True)
    (act2): Sigmoid()
    (hidden3): Linear(in_features=8, out_features=1, bias=True)
  ),
), <class '__main__.SampleWeightNN'>[initialized](
  module_=MLP(
    (hidden1): Linear(in_features=239, out_features=12, bias=True)
    (act1): Sigmoid()
    (hidden2): Linear(in_features=12, out_features=8, bias=True)
    (act2): Sigmoid()
    (hidden3): Linear(in_features=8, out_features=1, bias=True)
  ),
), <class '__main__.SampleWeightNN'>[initialized](
  module_=MLP(
    (hidden1): Linear(in_features=239, out_features=12, bias=True)
    (act1): Sigmoid()
    (hidden2): Linear(in_features=12, out_features=8, bias=True)
    (act2): Sigmoid()
    (hidden3): Linear(in_features=8, out_features=1, bias=True)
  ),
), <class '__main__.SampleWeightNN'>[initialized](
  module_=MLP(
    (hidden1): Linear(in_features=239, out_features=12, bias=True)
    (act1): Sigmoid()
    (hidden2): Linear(in_features=12, out_features=8, bias=True)
    (act2): Sigmoid()
    (hidden3): Linear(in_features=8, out_features=1, bias=True)
  ),
), <class '__main__.SampleWeightNN'>[initialized](
  module_=MLP(
    (hidden1): Linear(in_features=239, out_features=12, bias=True)
    (act1): Sigmoid()
    (hidden2): Linear(in_features=12, out_features=8, bias=True)
    (act2): Sigmoid()
    (hidden3): Linear(in_features=8, out_features=1, bias=True)
  ),
), <class '__main__.SampleWeightNN'>[initialized](
  module_=MLP(
    (hidden1): Linear(in_features=239, out_features=12, bias=True)
    (act1): Sigmoid()
    (hidden2): Linear(in_features=12, out_features=8, bias=True)
    (act2): Sigmoid()
    (hidden3): Linear(in_features=8, out_features=1, bias=True)
  ),
), <class '__main__.SampleWeightNN'>[initialized](
  module_=MLP(
    (hidden1): Linear(in_features=239, out_features=12, bias=True)
    (act1): Sigmoid()
    (hidden2): Linear(in_features=12, out_features=8, bias=True)
    (act2): Sigmoid()
    (hidden3): Linear(in_features=8, out_features=1, bias=True)
  ),
), <class '__main__.SampleWeightNN'>[initialized](
  module_=MLP(
    (hidden1): Linear(in_features=239, out_features=12, bias=True)
    (act1): Sigmoid()
    (hidden2): Linear(in_features=12, out_features=8, bias=True)
    (act2): Sigmoid()
    (hidden3): Linear(in_features=8, out_features=1, bias=True)
  ),
), <class '__main__.SampleWeightNN'>[initialized](
  module_=MLP(
    (hidden1): Linear(in_features=239, out_features=12, bias=True)
    (act1): Sigmoid()
    (hidden2): Linear(in_features=12, out_features=8, bias=True)
    (act2): Sigmoid()
    (hidden3): Linear(in_features=8, out_features=1, bias=True)
  ),
), <class '__main__.SampleWeightNN'>[initialized](
  module_=MLP(
    (hidden1): Linear(in_features=239, out_features=12, bias=True)
    (act1): Sigmoid()
    (hidden2): Linear(in_features=12, out_features=8, bias=True)
    (act2): Sigmoid()
    (hidden3): Linear(in_features=8, out_features=1, bias=True)
  ),
), <class '__main__.SampleWeightNN'>[initialized](
  module_=MLP(
    (hidden1): Linear(in_features=239, out_features=12, bias=True)
    (act1): Sigmoid()
    (hidden2): Linear(in_features=12, out_features=8, bias=True)
    (act2): Sigmoid()
    (hidden3): Linear(in_features=8, out_features=1, bias=True)
  ),
), <class '__main__.SampleWeightNN'>[initialized](
  module_=MLP(
    (hidden1): Linear(in_features=239, out_features=12, bias=True)
    (act1): Sigmoid()
    (hidden2): Linear(in_features=12, out_features=8, bias=True)
    (act2): Sigmoid()
    (hidden3): Linear(in_features=8, out_features=1, bias=True)
  ),
), <class '__main__.SampleWeightNN'>[initialized](
  module_=MLP(
    (hidden1): Linear(in_features=239, out_features=12, bias=True)
    (act1): Sigmoid()
    (hidden2): Linear(in_features=12, out_features=8, bias=True)
    (act2): Sigmoid()
    (hidden3): Linear(in_features=8, out_features=1, bias=True)
  ),
), <class '__main__.SampleWeightNN'>[initialized](
  module_=MLP(
    (hidden1): Linear(in_features=239, out_features=12, bias=True)
    (act1): Sigmoid()
    (hidden2): Linear(in_features=12, out_features=8, bias=True)
    (act2): Sigmoid()
    (hidden3): Linear(in_features=8, out_features=1, bias=True)
  ),
), <class '__main__.SampleWeightNN'>[initialized](
  module_=MLP(
    (hidden1): Linear(in_features=239, out_features=12, bias=True)
    (act1): Sigmoid()
    (hidden2): Linear(in_features=12, out_features=8, bias=True)
    (act2): Sigmoid()
    (hidden3): Linear(in_features=8, out_features=1, bias=True)
  ),
), <class '__main__.SampleWeightNN'>[initialized](
  module_=MLP(
    (hidden1): Linear(in_features=239, out_features=12, bias=True)
    (act1): Sigmoid()
    (hidden2): Linear(in_features=12, out_features=8, bias=True)
    (act2): Sigmoid()
    (hidden3): Linear(in_features=8, out_features=1, bias=True)
  ),
), <class '__main__.SampleWeightNN'>[initialized](
  module_=MLP(
    (hidden1): Linear(in_features=239, out_features=12, bias=True)
    (act1): Sigmoid()
    (hidden2): Linear(in_features=12, out_features=8, bias=True)
    (act2): Sigmoid()
    (hidden3): Linear(in_features=8, out_features=1, bias=True)
  ),
), <class '__main__.SampleWeightNN'>[initialized](
  module_=MLP(
    (hidden1): Linear(in_features=239, out_features=12, bias=True)
    (act1): Sigmoid()
    (hidden2): Linear(in_features=12, out_features=8, bias=True)
    (act2): Sigmoid()
    (hidden3): Linear(in_features=8, out_features=1, bias=True)
  ),
), <class '__main__.SampleWeightNN'>[initialized](
  module_=MLP(
    (hidden1): Linear(in_features=239, out_features=12, bias=True)
    (act1): Sigmoid()
    (hidden2): Linear(in_features=12, out_features=8, bias=True)
    (act2): Sigmoid()
    (hidden3): Linear(in_features=8, out_features=1, bias=True)
  ),
), <class '__main__.SampleWeightNN'>[initialized](
  module_=MLP(
    (hidden1): Linear(in_features=239, out_features=12, bias=True)
    (act1): Sigmoid()
    (hidden2): Linear(in_features=12, out_features=8, bias=True)
    (act2): Sigmoid()
    (hidden3): Linear(in_features=8, out_features=1, bias=True)
  ),
)]
Traceback (most recent call last):
  File "C:\Users\rapha\AppData\Local\Programs\Python\Python37\lib\site-packages\pandas\core\indexes\base.py", line 2891, in get_loc
    return self._engine.get_loc(casted_key)
  File "pandas\_libs\index.pyx", line 70, in pandas._libs.index.IndexEngine.get_loc
  File "pandas\_libs\index.pyx", line 101, in pandas._libs.index.IndexEngine.get_loc
…
