…
4   <class '__main__.SampleWeightNN'>[initialized]...  0.555556   0.375000
..                                                ...       ...        ...
66  <class '__main__.SampleWeightNN'>[initialized]...  0.583333   0.347222
67  <class '__main__.SampleWeightNN'>[initialized]...  0.583333   0.291667
68  <class '__main__.SampleWeightNN'>[initialized]...  0.597222   0.277778
69  <class '__main__.SampleWeightNN'>[initialized]...  0.500000   0.430556
70  <class '__main__.SampleWeightNN'>[initialized]...  0.541667   0.388889

[71 rows x 3 columns]
#################################################
[<class '__main__.SampleWeightNN'>[initialized](
  module_=MLP(
    (hidden1): Linear(in_features=239, out_features=12, bias=True)
    (act1): Sigmoid()
    (hidden2): Linear(in_features=12, out_features=8, bias=True)
    (act2): Sigmoid()
    (hidden3): Linear(in_features=8, out_features=1, bias=True)
  ),
), <class '__main__.SampleWeightNN'>[initialized](
  module_=MLP(
    (hidden1): Linear(in_features=239, out_features=12, bias=True)
    (act1): Sigmoid()
    (hidden2): Linear(in_features=12, out_features=8, bias=True)
    (act2): Sigmoid()
    (hidden3): Linear(in_features=8, out_features=1, bias=True)
  ),
), <class '__main__.SampleWeightNN'>[initialized](
  module_=MLP(
    (hidden1): Linear(in_features=239, out_features=12, bias=True)
    (act1): Sigmoid()
    (hidden2): Linear(in_features=12, out_features=8, bias=True)
    (act2): Sigmoid()
    (hidden3): Linear(in_features=8, out_features=1, bias=True)
  ),
), <class '__main__.SampleWeightNN'>[initialized](
  module_=MLP(
    (hidden1): Linear(in_features=239, out_features=12, bias=True)
    (act1): Sigmoid()
    (hidden2): Linear(in_features=12, out_features=8, bias=True)
    (act2): Sigmoid()
    (hidden3): Linear(in_features=8, out_features=1, bias=True)
  ),
), <class '__main__.SampleWeightNN'>[initialized](
  module_=MLP(
    (hidden1): Linear(in_features=239, out_features=12, bias=True)
    (act1): Sigmoid()
    (hidden2): Linear(in_features=12, out_features=8, bias=True)
    (act2): Sigmoid()
    (hidden3): Linear(in_features=8, out_features=1, bias=True)
  ),
), <class '__main__.SampleWeightNN'>[initialized](
  module_=MLP(
    (hidden1): Linear(in_features=239, out_features=12, bias=True)
    (act1): Sigmoid()
    (hidden2): Linear(in_features=12, out_features=8, bias=True)
    (act2): Sigmoid()
    (hidden3): Linear(in_features=8, out_features=1, bias=True)
  ),
), <class '__main__.SampleWeightNN'>[initialized](
  module_=MLP(
    (hidden1): Linear(in_features=239, out_features=12, bias=True)
    (act1): Sigmoid()
    (hidden2): Linear(in_features=12, out_features=8, bias=True)
    (act2): Sigmoid()
    (hidden3): Linear(in_features=8, out_features=1, bias=True)
  ),
), <class '__main__.SampleWeightNN'>[initialized](
  module_=MLP(
    (hidden1): Linear(in_features=239, out_features=12, bias=True)
    (act1): Sigmoid()
    (hidden2): Linear(in_features=12, out_features=8, bias=True)
    (act2): Sigmoid()
    (hidden3): Linear(in_features=8, out_features=1, bias=True)
  ),
), <class '__main__.SampleWeightNN'>[initialized](
  module_=MLP(
    (hidden1): Linear(in_features=239, out_features=12, bias=True)
    (act1): Sigmoid()
    (hidden2): Linear(in_features=12, out_features=8, bias=True)
    (act2): Sigmoid()
    (hidden3): Linear(in_features=8, out_features=1, bias=True)
  ),
), <class '__main__.SampleWeightNN'>[initialized](
  module_=MLP(
    (hidden1): Linear(in_features=239, out_features=12, bias=True)
    (act1): Sigmoid()
    (hidden2): Linear(in_features=12, out_features=8, bias=True)
    (act2): Sigmoid()
    (hidden3): Linear(in_features=8, out_features=1, bias=True)
  ),
), <class '__main__.SampleWeightNN'>[initialized](
  module_=MLP(
    (hidden1): Linear(in_features=239, out_features=12, bias=True)
    (act1): Sigmoid()
    (hidden2): Linear(in_features=12, out_features=8, bias=True)
    (act2): Sigmoid()
    (hidden3): Linear(in_features=8, out_features=1, bias=True)
  ),
), <class '__main__.SampleWeightNN'>[initialized](
  module_=MLP(
    (hidden1): Linear(in_features=239, out_features=12, bias=True)
    (act1): Sigmoid()
    (hidden2): Linear(in_features=12, out_features=8, bias=True)
    (act2): Sigmoid()
    (hidden3): Linear(in_features=8, out_features=1, bias=True)
  ),
), <class '__main__.SampleWeightNN'>[initialized](
  module_=MLP(
    (hidden1): Linear(in_features=239, out_features=12, bias=True)
    (act1): Sigmoid()
    (hidden2): Linear(in_features=12, out_features=8, bias=True)
    (act2): Sigmoid()
    (hidden3): Linear(in_features=8, out_features=1, bias=True)
  ),
), <class '__main__.SampleWeightNN'>[initialized](
  module_=MLP(
    (hidden1): Linear(in_features=239, out_features=12, bias=True)
    (act1): Sigmoid()
    (hidden2): Linear(in_features=12, out_features=8, bias=True)
    (act2): Sigmoid()
    (hidden3): Linear(in_features=8, out_features=1, bias=True)
  ),
), <class '__main__.SampleWeightNN'>[initialized](
  module_=MLP(
    (hidden1): Linear(in_features=239, out_features=12, bias=True)
    (act1): Sigmoid()
    (hidden2): Linear(in_features=12, out_features=8, bias=True)
    (act2): Sigmoid()
    (hidden3): Linear(in_features=8, out_features=1, bias=True)
  ),
), <class '__main__.SampleWeightNN'>[initialized](
  module_=MLP(
    (hidden1): Linear(in_features=239, out_features=12, bias=True)
    (act1): Sigmoid()
    (hidden2): Linear(in_features=12, out_features=8, bias=True)
    (act2): Sigmoid()
    (hidden3): Linear(in_features=8, out_features=1, bias=True)
  ),
), <class '__main__.SampleWeightNN'>[initialized](
  module_=MLP(
    (hidden1): Linear(in_features=239, out_features=12, bias=True)
    (act1): Sigmoid()
    (hidden2): Linear(in_features=12, out_features=8, bias=True)
    (act2): Sigmoid()
    (hidden3): Linear(in_features=8, out_features=1, bias=True)
  ),
), <class '__main__.SampleWeightNN'>[initialized](
  module_=MLP(
    (hidden1): Linear(in_features=239, out_features=12, bias=True)
    (act1): Sigmoid()
    (hidden2): Linear(in_features=12, out_features=8, bias=True)
    (act2): Sigmoid()
    (hidden3): Linear(in_features=8, out_features=1, bias=True)
  ),
), <class '__main__.SampleWeightNN'>[initialized](
  module_=MLP(
    (hidden1): Linear(in_features=239, out_features=12, bias=True)
    (act1): Sigmoid()
    (hidden2): Linear(in_features=12, out_features=8, bias=True)
    (act2): Sigmoid()
    (hidden3): Linear(in_features=8, out_features=1, bias=True)
  ),
), <class '__main__.SampleWeightNN'>[initialized](
  module_=MLP(
    (hidden1): Linear(in_features=239, out_features=12, bias=True)
    (act1): Sigmoid()
    (hidden2): Linear(in_features=12, out_features=8, bias=True)
    (act2): Sigmoid()
    (hidden3): Linear(in_features=8, out_features=1, bias=True)
  ),
), <class '__main__.SampleWeightNN'>[initialized](
  module_=MLP(
    (hidden1): Linear(in_features=239, out_features=12, bias=True)
    (act1): Sigmoid()
    (hidden2): Linear(in_features=12, out_features=8, bias=True)
    (act2): Sigmoid()
    (hidden3): Linear(in_features=8, out_features=1, bias=True)
  ),
), <class '__main__.SampleWeightNN'>[initialized](
  module_=MLP(
    (hidden1): Linear(in_features=239, out_features=12, bias=True)
    (act1): Sigmoid()
    (hidden2): Linear(in_features=12, out_features=8, bias=True)
    (act2): Sigmoid()
    (hidden3): Linear(in_features=8, out_features=1, bias=True)
  ),
), <class '__main__.SampleWeightNN'>[initialized](
  module_=MLP(
    (hidden1): Linear(in_features=239, out_features=12, bias=True)
    (act1): Sigmoid()
    (hidden2): Linear(in_features=12, out_features=8, bias=True)
    (act2): Sigmoid()
    (hidden3): Linear(in_features=8, out_features=1, bias=True)
  ),
), <class '__main__.SampleWeightNN'>[initialized](
  module_=MLP(
    (hidden1): Linear(in_features=239, out_features=12, bias=True)
    (act1): Sigmoid()
    (hidden2): Linear(in_features=12, out_features=8, bias=True)
    (act2): Sigmoid()
    (hidden3): Linear(in_features=8, out_features=1, bias=True)
  ),
), <class '__main__.SampleWeightNN'>[initialized](
  module_=MLP(
    (hidden1): Linear(in_features=239, out_features=12, bias=True)
    (act1): Sigmoid()
    (hidden2): Linear(in_features=12, out_features=8, bias=True)
    (act2): Sigmoid()
    (hidden3): Linear(in_features=8, out_features=1, bias=True)
  ),
), <class '__main__.SampleWeightNN'>[initialized](
  module_=MLP(
    (hidden1): Linear(in_features=239, out_features=12, bias=True)
    (act1): Sigmoid()
    (hidden2): Linear(in_features=12, out_features=8, bias=True)
    (act2): Sigmoid()
    (hidden3): Linear(in_features=8, out_features=1, bias=True)
  ),
), <class '__main__.SampleWeightNN'>[initialized](
  module_=MLP(
    (hidden1): Linear(in_features=239, out_features=12, bias=True)
    (act1): Sigmoid()
    (hidden2): Linear(in_features=12, out_features=8, bias=True)
    (act2): Sigmoid()
    (hidden3): Linear(in_features=8, out_features=1, bias=True)
  ),
), <class '__main__.SampleWeightNN'>[initialized](
  module_=MLP(
    (hidden1): Linear(in_features=239, out_features=12, bias=True)
    (act1): Sigmoid()
    (hidden2): Linear(in_features=12, out_features=8, bias=True)
    (act2): Sigmoid()
    (hidden3): Linear(in_features=8, out_features=1, bias=True)
  ),
), <class '__main__.SampleWeightNN'>[initialized](
  module_=MLP(
    (hidden1): Linear(in_features=239, out_features=12, bias=True)
    (act1): Sigmoid()
    (hidden2): Linear(in_features=12, out_features=8, bias=True)
    (act2): Sigmoid()
    (hidden3): Linear(in_features=8, out_features=1, bias=True)
  ),
), <class '__main__.SampleWeightNN'>[initialized](
  module_=MLP(
    (hidden1): Linear(in_features=239, out_features=12, bias=True)
    (act1): Sigmoid()
    (hidden2): Linear(in_features=12, out_features=8, bias=True)
    (act2): Sigmoid()
    (hidden3): Linear(in_features=8, out_features=1, bias=True)
  ),
), <class '__main__.SampleWeightNN'>[initialized](
  module_=MLP(
    (hidden1): Linear(in_features=239, out_features=12, bias=True)
    (act1): Sigmoid()
    (hidden2): Linear(in_features=12, out_features=8, bias=True)
    (act2): Sigmoid()
    (hidden3): Linear(in_features=8, out_features=1, bias=True)
  ),
), <class '__main__.SampleWeightNN'>[initialized](
  module_=MLP(
    (hidden1): Linear(in_features=239, out_features=12, bias=True)
    (act1): Sigmoid()
    (hidden2): Linear(in_features=12, out_features=8, bias=True)
    (act2): Sigmoid()
    (hidden3): Linear(in_features=8, out_features=1, bias=True)
  ),
), <class '__main__.SampleWeightNN'>[initialized](
  module_=MLP(
    (hidden1): Linear(in_features=239, out_features=12, bias=True)
    (act1): Sigmoid()
    (hidden2): Linear(in_features=12, out_features=8, bias=True)
    (act2): Sigmoid()
    (hidden3): Linear(in_features=8, out_features=1, bias=True)
  ),
), <class '__main__.SampleWeightNN'>[initialized](
  module_=MLP(
    (hidden1): Linear(in_features=239, out_features=12, bias=True)
    (act1): Sigmoid()
    (hidden2): Linear(in_features=12, out_features=8, bias=True)
    (act2): Sigmoid()
    (hidden3): Linear(in_features=8, out_features=1, bias=True)
  ),
), <class '__main__.SampleWeightNN'>[initialized](
  module_=MLP(
    (hidden1): Linear(in_features=239, out_features=12, bias=True)
    (act1): Sigmoid()
    (hidden2): Linear(in_features=12, out_features=8, bias=True)
    (act2): Sigmoid()
    (hidden3): Linear(in_features=8, out_features=1, bias=True)
  ),
), <class '__main__.SampleWeightNN'>[initialized](
  module_=MLP(
    (hidden1): Linear(in_features=239, out_features=12, bias=True)
    (act1): Sigmoid()
    (hidden2): Linear(in_features=12, out_features=8, bias=True)
    (act2): Sigmoid()
    (hidden3): Linear(in_features=8, out_features=1, bias=True)
  ),
), <class '__main__.SampleWeightNN'>[initialized](
  module_=MLP(
    (hidden1): Linear(in_features=239, out_features=12, bias=True)
    (act1): Sigmoid()
    (hidden2): Linear(in_features=12, out_features=8, bias=True)
    (act2): Sigmoid()
    (hidden3): Linear(in_features=8, out_features=1, bias=True)
  ),
), <class '__main__.SampleWeightNN'>[initialized](
  module_=MLP(
    (hidden1): Linear(in_features=239, out_features=12, bias=True)
    (act1): Sigmoid()
    (hidden2): Linear(in_features=12, out_features=8, bias=True)
    (act2): Sigmoid()
    (hidden3): Linear(in_features=8, out_features=1, bias=True)
  ),
), <class '__main__.SampleWeightNN'>[initialized](
  module_=MLP(
    (hidden1): Linear(in_features=239, out_features=12, bias=True)
    (act1): Sigmoid()
    (hidden2): Linear(in_features=12, out_features=8, bias=True)
    (act2): Sigmoid()
    (hidden3): Linear(in_features=8, out_features=1, bias=True)
  ),
), <class '__main__.SampleWeightNN'>[initialized](
  module_=MLP(
    (hidden1): Linear(in_features=239, out_features=12, bias=True)
    (act1): Sigmoid()
    (hidden2): Linear(in_features=12, out_features=8, bias=True)
    (act2): Sigmoid()
    (hidden3): Linear(in_features=8, out_features=1, bias=True)
  ),
)]
Traceback (most recent call last):
  File "pytorchModel.py", line 240, in <module>
    errors
TypeError: unsupported format string passed to list.__format__
