…
4   <class '__main__.SampleWeightNN'>[initialized]...  0.722222   0.902778
..                                                ...       ...        ...
66  <class '__main__.SampleWeightNN'>[initialized]...  0.708333   0.166667
67  <class '__main__.SampleWeightNN'>[initialized]...  0.611111   0.347222
68  <class '__main__.SampleWeightNN'>[initialized]...  0.527778   0.486111
69  <class '__main__.SampleWeightNN'>[initialized]...  0.736111   0.972222
70  <class '__main__.SampleWeightNN'>[initialized]...  0.750000   0.013889

[71 rows x 3 columns]
#################################################
[<class '__main__.SampleWeightNN'>[initialized](
  module_=MLP(
    (hidden1): Linear(in_features=239, out_features=12, bias=True)
    (act1): Sigmoid()
    (hidden2): Linear(in_features=12, out_features=8, bias=True)
    (act2): Sigmoid()
    (hidden3): Linear(in_features=8, out_features=1, bias=True)
  ),
), <class '__main__.SampleWeightNN'>[initialized](
  module_=MLP(
    (hidden1): Linear(in_features=239, out_features=12, bias=True)
    (act1): Sigmoid()
    (hidden2): Linear(in_features=12, out_features=8, bias=True)
    (act2): Sigmoid()
    (hidden3): Linear(in_features=8, out_features=1, bias=True)
  ),
), <class '__main__.SampleWeightNN'>[initialized](
  module_=MLP(
    (hidden1): Linear(in_features=239, out_features=12, bias=True)
    (act1): Sigmoid()
    (hidden2): Linear(in_features=12, out_features=8, bias=True)
    (act2): Sigmoid()
    (hidden3): Linear(in_features=8, out_features=1, bias=True)
  ),
), <class '__main__.SampleWeightNN'>[initialized](
  module_=MLP(
    (hidden1): Linear(in_features=239, out_features=12, bias=True)
    (act1): Sigmoid()
    (hidden2): Linear(in_features=12, out_features=8, bias=True)
    (act2): Sigmoid()
    (hidden3): Linear(in_features=8, out_features=1, bias=True)
  ),
), <class '__main__.SampleWeightNN'>[initialized](
  module_=MLP(
    (hidden1): Linear(in_features=239, out_features=12, bias=True)
    (act1): Sigmoid()
    (hidden2): Linear(in_features=12, out_features=8, bias=True)
    (act2): Sigmoid()
    (hidden3): Linear(in_features=8, out_features=1, bias=True)
  ),
), <class '__main__.SampleWeightNN'>[initialized](
  module_=MLP(
    (hidden1): Linear(in_features=239, out_features=12, bias=True)
    (act1): Sigmoid()
    (hidden2): Linear(in_features=12, out_features=8, bias=True)
    (act2): Sigmoid()
    (hidden3): Linear(in_features=8, out_features=1, bias=True)
  ),
), <class '__main__.SampleWeightNN'>[initialized](
  module_=MLP(
    (hidden1): Linear(in_features=239, out_features=12, bias=True)
    (act1): Sigmoid()
    (hidden2): Linear(in_features=12, out_features=8, bias=True)
    (act2): Sigmoid()
    (hidden3): Linear(in_features=8, out_features=1, bias=True)
  ),
), <class '__main__.SampleWeightNN'>[initialized](
  module_=MLP(
    (hidden1): Linear(in_features=239, out_features=12, bias=True)
    (act1): Sigmoid()
    (hidden2): Linear(in_features=12, out_features=8, bias=True)
    (act2): Sigmoid()
    (hidden3): Linear(in_features=8, out_features=1, bias=True)
  ),
), <class '__main__.SampleWeightNN'>[initialized](
  module_=MLP(
    (hidden1): Linear(in_features=239, out_features=12, bias=True)
    (act1): Sigmoid()
    (hidden2): Linear(in_features=12, out_features=8, bias=True)
    (act2): Sigmoid()
    (hidden3): Linear(in_features=8, out_features=1, bias=True)
  ),
), <class '__main__.SampleWeightNN'>[initialized](
  module_=MLP(
    (hidden1): Linear(in_features=239, out_features=12, bias=True)
    (act1): Sigmoid()
    (hidden2): Linear(in_features=12, out_features=8, bias=True)
    (act2): Sigmoid()
    (hidden3): Linear(in_features=8, out_features=1, bias=True)
  ),
), <class '__main__.SampleWeightNN'>[initialized](
  module_=MLP(
    (hidden1): Linear(in_features=239, out_features=12, bias=True)
    (act1): Sigmoid()
    (hidden2): Linear(in_features=12, out_features=8, bias=True)
    (act2): Sigmoid()
    (hidden3): Linear(in_features=8, out_features=1, bias=True)
  ),
), <class '__main__.SampleWeightNN'>[initialized](
  module_=MLP(
    (hidden1): Linear(in_features=239, out_features=12, bias=True)
    (act1): Sigmoid()
    (hidden2): Linear(in_features=12, out_features=8, bias=True)
    (act2): Sigmoid()
    (hidden3): Linear(in_features=8, out_features=1, bias=True)
  ),
), <class '__main__.SampleWeightNN'>[initialized](
  module_=MLP(
    (hidden1): Linear(in_features=239, out_features=12, bias=True)
    (act1): Sigmoid()
    (hidden2): Linear(in_features=12, out_features=8, bias=True)
    (act2): Sigmoid()
    (hidden3): Linear(in_features=8, out_features=1, bias=True)
  ),
), <class '__main__.SampleWeightNN'>[initialized](
  module_=MLP(
    (hidden1): Linear(in_features=239, out_features=12, bias=True)
    (act1): Sigmoid()
    (hidden2): Linear(in_features=12, out_features=8, bias=True)
    (act2): Sigmoid()
    (hidden3): Linear(in_features=8, out_features=1, bias=True)
  ),
), <class '__main__.SampleWeightNN'>[initialized](
  module_=MLP(
    (hidden1): Linear(in_features=239, out_features=12, bias=True)
    (act1): Sigmoid()
    (hidden2): Linear(in_features=12, out_features=8, bias=True)
    (act2): Sigmoid()
    (hidden3): Linear(in_features=8, out_features=1, bias=True)
  ),
), <class '__main__.SampleWeightNN'>[initialized](
  module_=MLP(
    (hidden1): Linear(in_features=239, out_features=12, bias=True)
    (act1): Sigmoid()
    (hidden2): Linear(in_features=12, out_features=8, bias=True)
    (act2): Sigmoid()
    (hidden3): Linear(in_features=8, out_features=1, bias=True)
  ),
), <class '__main__.SampleWeightNN'>[initialized](
  module_=MLP(
    (hidden1): Linear(in_features=239, out_features=12, bias=True)
    (act1): Sigmoid()
    (hidden2): Linear(in_features=12, out_features=8, bias=True)
    (act2): Sigmoid()
    (hidden3): Linear(in_features=8, out_features=1, bias=True)
  ),
), <class '__main__.SampleWeightNN'>[initialized](
  module_=MLP(
    (hidden1): Linear(in_features=239, out_features=12, bias=True)
    (act1): Sigmoid()
    (hidden2): Linear(in_features=12, out_features=8, bias=True)
    (act2): Sigmoid()
    (hidden3): Linear(in_features=8, out_features=1, bias=True)
  ),
), <class '__main__.SampleWeightNN'>[initialized](
  module_=MLP(
    (hidden1): Linear(in_features=239, out_features=12, bias=True)
    (act1): Sigmoid()
    (hidden2): Linear(in_features=12, out_features=8, bias=True)
    (act2): Sigmoid()
    (hidden3): Linear(in_features=8, out_features=1, bias=True)
  ),
), <class '__main__.SampleWeightNN'>[initialized](
  module_=MLP(
    (hidden1): Linear(in_features=239, out_features=12, bias=True)
    (act1): Sigmoid()
    (hidden2): Linear(in_features=12, out_features=8, bias=True)
    (act2): Sigmoid()
    (hidden3): Linear(in_features=8, out_features=1, bias=True)
  ),
), <class '__main__.SampleWeightNN'>[initialized](
  module_=MLP(
    (hidden1): Linear(in_features=239, out_features=12, bias=True)
    (act1): Sigmoid()
    (hidden2): Linear(in_features=12, out_features=8, bias=True)
    (act2): Sigmoid()
    (hidden3): Linear(in_features=8, out_features=1, bias=True)
  ),
), <class '__main__.SampleWeightNN'>[initialized](
  module_=MLP(
    (hidden1): Linear(in_features=239, out_features=12, bias=True)
    (act1): Sigmoid()
    (hidden2): Linear(in_features=12, out_features=8, bias=True)
    (act2): Sigmoid()
    (hidden3): Linear(in_features=8, out_features=1, bias=True)
  ),
), <class '__main__.SampleWeightNN'>[initialized](
  module_=MLP(
    (hidden1): Linear(in_features=239, out_features=12, bias=True)
    (act1): Sigmoid()
    (hidden2): Linear(in_features=12, out_features=8, bias=True)
    (act2): Sigmoid()
    (hidden3): Linear(in_features=8, out_features=1, bias=True)
  ),
), <class '__main__.SampleWeightNN'>[initialized](
  module_=MLP(
    (hidden1): Linear(in_features=239, out_features=12, bias=True)
    (act1): Sigmoid()
    (hidden2): Linear(in_features=12, out_features=8, bias=True)
    (act2): Sigmoid()
    (hidden3): Linear(in_features=8, out_features=1, bias=True)
  ),
), <class '__main__.SampleWeightNN'>[initialized](
  module_=MLP(
    (hidden1): Linear(in_features=239, out_features=12, bias=True)
    (act1): Sigmoid()
    (hidden2): Linear(in_features=12, out_features=8, bias=True)
    (act2): Sigmoid()
    (hidden3): Linear(in_features=8, out_features=1, bias=True)
  ),
), <class '__main__.SampleWeightNN'>[initialized](
  module_=MLP(
    (hidden1): Linear(in_features=239, out_features=12, bias=True)
    (act1): Sigmoid()
    (hidden2): Linear(in_features=12, out_features=8, bias=True)
    (act2): Sigmoid()
    (hidden3): Linear(in_features=8, out_features=1, bias=True)
  ),
), <class '__main__.SampleWeightNN'>[initialized](
  module_=MLP(
    (hidden1): Linear(in_features=239, out_features=12, bias=True)
    (act1): Sigmoid()
    (hidden2): Linear(in_features=12, out_features=8, bias=True)
    (act2): Sigmoid()
    (hidden3): Linear(in_features=8, out_features=1, bias=True)
  ),
), <class '__main__.SampleWeightNN'>[initialized](
  module_=MLP(
    (hidden1): Linear(in_features=239, out_features=12, bias=True)
    (act1): Sigmoid()
    (hidden2): Linear(in_features=12, out_features=8, bias=True)
    (act2): Sigmoid()
    (hidden3): Linear(in_features=8, out_features=1, bias=True)
  ),
), <class '__main__.SampleWeightNN'>[initialized](
  module_=MLP(
    (hidden1): Linear(in_features=239, out_features=12, bias=True)
    (act1): Sigmoid()
    (hidden2): Linear(in_features=12, out_features=8, bias=True)
    (act2): Sigmoid()
    (hidden3): Linear(in_features=8, out_features=1, bias=True)
  ),
), <class '__main__.SampleWeightNN'>[initialized](
  module_=MLP(
    (hidden1): Linear(in_features=239, out_features=12, bias=True)
    (act1): Sigmoid()
    (hidden2): Linear(in_features=12, out_features=8, bias=True)
    (act2): Sigmoid()
    (hidden3): Linear(in_features=8, out_features=1, bias=True)
  ),
), <class '__main__.SampleWeightNN'>[initialized](
  module_=MLP(
    (hidden1): Linear(in_features=239, out_features=12, bias=True)
    (act1): Sigmoid()
    (hidden2): Linear(in_features=12, out_features=8, bias=True)
    (act2): Sigmoid()
    (hidden3): Linear(in_features=8, out_features=1, bias=True)
  ),
), <class '__main__.SampleWeightNN'>[initialized](
  module_=MLP(
    (hidden1): Linear(in_features=239, out_features=12, bias=True)
    (act1): Sigmoid()
    (hidden2): Linear(in_features=12, out_features=8, bias=True)
    (act2): Sigmoid()
    (hidden3): Linear(in_features=8, out_features=1, bias=True)
  ),
), <class '__main__.SampleWeightNN'>[initialized](
  module_=MLP(
    (hidden1): Linear(in_features=239, out_features=12, bias=True)
    (act1): Sigmoid()
    (hidden2): Linear(in_features=12, out_features=8, bias=True)
    (act2): Sigmoid()
    (hidden3): Linear(in_features=8, out_features=1, bias=True)
  ),
)]
Traceback (most recent call last):
  File "pytorchModel.py", line 242, in <module>
    all_results["disparity"]
TypeError: unsupported format string passed to Series.__format__
